src/lib/libtf/models/ei_object_detection.tflite (tflite, 56848 bytes, 21 tensors)

model_1/Conv1/Conv2D i1 [16, 3, 3, 1]
000000 aa 92 e2 43 db 11 20 7f 14 68 a1 f6 81 67 17 0d
       -86 -110 -30 67 -37 17 32 127 20 104 -95 -10 -127 103 23 13
000010 fd f2 e9 fe d1 24 5f 7f f5 a3 b2 79 7f 3c 03 ec
       -3 -14 -23 -2 -47 36 95 127 -11 -93 -78 121 127 60 3 -20
000020 f4 9d 84 d7 1f d0 08 15 81 03 0c ab f2 c9 1e 03
       -12 -99 -124 -41 31 -48 8 21 -127 3 12 -85 -14 -55 30 3
000030 81 1e 03 a6 14 ff ef 50 7f ce 39 f0 dc cc a7 20
       -127 30 3 -90 20 -1 -17 80 127 -50 57 -16 -36 -52 -89 32
000040 18 f1 7f 48 ff 1b 02 eb ec e2 35 cb a9 7f e6 c3
       24 -15 127 72 -1 27 2 -21 -20 -30 53 -53 -87 127 -26 -61
000050 60 eb 32 f2 f1 7f f3 fa 57 f9 18 57 0c db 81 e3
       96 -21 50 -14 -15 127 -13 -6 87 -7 24 87 12 -37 -127 -29
000060 0c 28 12 07 ed 0a 40 a1 23 a9 7f d0 d7 32 f6 81
       12 40 18 7 -19 10 64 -95 35 -87 127 -48 -41 50 -10 -127
000070 73 06 b2 50 05 4e 13 ee 7f 6c f5 5a 7f 37 e2 e5
       115 6 -78 80 5 78 19 -18 127 108 -11 90 127 55 -30 -27
000080 30 2d 63 81 f0 ba 51 ab e7 11 81 8f 0c e9 b8 f2
       48 45 99 -127 -16 -70 81 -85 -25 17 -127 -113 12 -23 -72 -14

model_1/expanded_conv_depthwise_BN/FusedBatchNormV3;model_1/expanded_conv_depthwise/depthwise;model_1/block_5_project/Conv2D i1 [1, 3, 3, 16]
000000 01 f9 02 02 ec 0b 0b 0f f7 f5 ff f7 01 f8 01 02
       1 -7 2 2 -20 11 11 15 -9 -11 -1 -9 1 -8 1 2
000010 04 fb 01 01 0d fe 0f e6 f8 09 fd 5a f8 13 04 02
       4 -5 1 1 13 -2 15 -26 -8 9 -3 90 -8 19 4 2
000020 ff f8 f8 00 02 f2 fc 0b 03 03 ff f8 fd fb ff 01
       -1 -8 -8 0 2 -14 -4 11 3 3 -1 -8 -3 -5 -1 1
000030 09 fb 04 00 7f e8 81 ea 7f 7f 01 fb 6e e9 01 f0
       9 -5 4 0 127 -24 -127 -22 127 127 1 -5 110 -23 1 -16
000040 81 7f 7f fc aa a5 f2 99 12 97 7f 7f 7f 7f 7f 7f
       -127 127 127 -4 -86 -91 -14 -103 18 -105 127 127 127 127 127 127
000050 0f 00 fc fe f5 7f 04 f5 fe f3 fe fc 06 fd f7 f9
       15 0 -4 -2 -11 127 4 -11 -2 -13 -2 -4 6 -3 -9 -7
000060 fe ff 01 ed ef 0f 38 06 fb f8 ff 01 fa 02 fe f7
       -2 -1 1 -19 -17 15 56 6 -5 -8 -1 1 -6 2 -2 -9
000070 13 f3 fc 81 08 f0 f9 7f fd 01 ff f2 f8 c8 fa de
       19 -13 -4 -127 8 -16 -7 127 -3 1 -1 -14 -8 -56 -6 -34
000080 ff fe fe f8 02 fb 03 fe ff 02 fc 02 fd fc fb f6
       -1 -2 -2 -8 2 -5 3 -2 -1 2 -4 2 -3 -4 -5 -10

model_1/expanded_conv_project/Conv2D i1 [8, 1, 1, 16]
000000 f3 f2 eb c1 e8 e0 15 ef 25 0c e0 fa 6c 7f ed 98
       -13 -14 -21 -63 -24 -32 21 -17 37 12 -32 -6 108 127 -19 -104
000010 7f c3 d8 12 d2 49 b7 d6 d7 53 dd cd f5 02 c0 ef
       127 -61 -40 18 -46 73 -73 -42 -41 83 -35 -51 -11 2 -64 -17
000020 dc 9f 27 2e 2c c6 b1 ee 1b a1 18 81 2c e7 b3 14
       -36 -97 39 46 44 -58 -79 -18 27 -95 24 -127 44 -25 -77 20
000030 24 0e 0b 10 f5 47 c8 e9 7f 2d 09 1a 02 f0 0d 17
       36 14 11 16 -11 71 -56 -23 127 45 9 26 2 -16 13 23
000040 9e db e7 81 f6 24 35 87 1f eb cf d8 82 21 d6 e6
       -98 -37 -25 -127 -10 36 53 -121 31 -21 -49 -40 -126 33 -42 -26
000050 53 39 4c de 35 d1 84 81 ef b7 45 36 c5 35 46 d6
       83 57 76 -34 53 -47 -124 -127 -17 -73 69 54 -59 53 70 -42
000060 71 29 81 ad 1d b7 ff 9f d0 16 81 61 59 a5 08 4b
       113 41 -127 -83 29 -73 -1 -97 -48 22 -127 97 89 -91 8 75
000070 81 fc 62 e7 be 06 01 c7 cb 3f 53 e3 3d e6 1f 1f
       -127 -4 98 -25 -66 6 1 -57 -53 63 83 -29 61 -26 31 31

model_1/block_1_expand/Conv2D i1 [48, 1, 1, 8]
000000 d9 1c ff f1 ac d5 81 1f 5c b0 c3 ce 7f a6 6b 1a
       -39 28 -1 -15 -84 -43 -127 31 92 -80 -61 -50 127 -90 107 26
000010 91 77 c9 81 38 f0 dc 32 2e 20 5e 01 66 7f 7b fb
       -111 119 -55 -127 56 -16 -36 50 46 32 94 1 102 127 123 -5
000020 b4 8e 43 05 d0 81 0b d4 7f e8 3f 40 b8 f5 ff eb
       -76 -114 67 5 -48 -127 11 -44 127 -24 63 64 -72 -11 -1 -21
000030 17 22 7f e5 26 d9 db 17 1b 07 81 e0 dc 63 5e b9
       23 34 127 -27 38 -39 -37 23 27 7 -127 -32 -36 99 94 -71
000040 02 7f e1 0f 48 75 2b 3a f2 74 b8 55 06 8c 21 7f
       2 127 -31 15 72 117 43 58 -14 116 -72 85 6 -116 33 127
000050 04 81 fb e8 ad 8a c5 a9 81 b3 6e 31 f9 c0 67 3c
       4 -127 -5 -24 -83 -118 -59 -87 -127 -77 110 49 -7 -64 103 60
000060 e1 2b 81 4e 1e cc bb 5d 5e 81 5c 51 0c 28 25 c6
       -31 43 -127 78 30 -52 -69 93 94 -127 92 81 12 40 37 -58
000070 e2 5d d4 81 de 86 d9 ca 26 6b 1e f1 1f c2 65 81
       -30 93 -44 -127 -34 -122 -39 -54 38 107 30 -15 31 -62 101 -127
000080 95 81 c7 61 cf 1a ed 52 e5 99 81 63 bf 4b d0 4a
       -107 -127 -57 97 -49 26 -19 82 -27 -103 -127 99 -65 75 -48 74
000090 a4 b3 d4 58 f7 47 01 7f 41 8f 65 81 11 bd 19 e2
       -92 -77 -44 88 -9 71 1 127 65 -113 101 -127 17 -67 25 -30
0000a0 fc 55 28 06 2f 7f 56 e7 1a 71 31 de 23 bf 58 81
       -4 85 40 6 47 127 86 -25 26 113 49 -34 35 -65 88 -127
0000b0 13 05 63 19 ef 7f 1c dc a1 bf 28 b5 58 5d bf 81
       19 5 99 25 -17 127 28 -36 -95 -65 40 -75 88 93 -65 -127
0000c0 9b 9f 28 ad 6b 70 d7 81 7f 09 c5 f3 0e 1d c4 f6
       -101 -97 40 -83 107 112 -41 -127 127 9 -59 -13 14 29 -60 -10
0000d0 81 e0 85 ea d3 e6 14 00 4d 26 01 c0 81 e0 57 56
       -127 -32 -123 -22 -45 -26 20 0 77 38 1 -64 -127 -32 87 86
0000e0 81 a2 09 35 b5 95 06 09 7f 61 2f 8d 21 07 d3 a3
       -127 -94 9 53 -75 -107 6 9 127 97 47 -115 33 7 -45 -93
0000f0 a9 c1 2a b7 4c 54 ce 81 2f 27 fb 7f fe b2 06 06
       -87 -63 42 -73 76 84 -50 -127 47 39 -5 127 -2 -78 6 6

model_1/block_1_depthwise_BN/FusedBatchNormV3;model_1/block_1_depthwise/depthwise;model_1/block_3_depthwise/depthwise i1 [1, 3, 3, 48]
000000 b9 98 e7 ef 7f ca 41 cc ac ad ea cb 6f 20 44 82
       -71 -104 -25 -17 127 -54 65 -52 -84 -83 -22 -53 111 32 68 -126
000010 42 e4 01 df a9 6a fc 0e e8 49 3d dd 4d b9 12 d7
       66 -28 1 -33 -87 106 -4 14 -24 73 61 -35 77 -71 18 -41
000020 a2 b2 30 42 1b 4d 78 b7 87 f3 1f 3d 33 81 5b 52
       -94 -78 48 66 27 77 120 -73 -121 -13 31 61 51 -127 91 82
000030 a6 91 b3 3d a1 70 39 c1 c1 25 4c 94 7f 51 63 b6
       -90 -111 -77 61 -95 112 57 -63 -63 37 76 -108 127 81 99 -74
000040 af a5 20 d2 ab 5f bf 6e b7 61 57 83 5b cd 0a 84
       -81 -91 32 -46 -85 95 -65 110 -73 97 87 -125 91 -51 10 -124
000050 cf ac 52 73 76 65 7f be 81 bc 3f 55 58 6a 5d 4e
       -49 -84 82 115 118 101 127 -66 -127 -68 63 85 88 106 93 78
000060 fe cf bd 68 c6 e0 1d fa 60 13 35 ca 1e 39 d1 05
       -2 -49 -67 104 -58 -32 29 -6 96 19 53 -54 30 57 -47 5
000070 a7 f2 20 da eb 0e c4 02 c7 2f 18 a5 23 38 7a c6
       -89 -14 32 -38 -21 14 -60 2 -57 47 24 -91 35 56 122 -58
000080 0a 0d f7 27 51 41 42 fa ea 5d 36 1f 27 1a 13 89
       10 13 -9 39 81 65 66 -6 -22 93 54 31 39 26 19 -119
000090 87 a3 df ad a2 b3 61 95 81 81 66 a3 56 2e 86 b4
       -121 -93 -33 -83 -94 -77 97 -107 -127 -127 102 -93 86 46 -122 -76
0000a0 7f 81 c1 a5 a7 7f dc 09 ee 67 63 d2 97 af 02 d5
       127 -127 -63 -91 -89 127 -36 9 -18 103 99 -46 -105 -81 2 -43
0000b0 a5 81 81 43 23 60 03 9e 3c ed 49 76 52 6b 7e 81
       -91 -127 -127 67 35 96 3 -98 60 -19 73 118 82 107 126 -127
0000c0 81 81 81 93 dd 7f 7f 81 64 3d 7f 81 72 7f 3d 81
       -127 -127 -127 -109 -35 127 127 -127 100 61 127 -127 114 127 61 -127
0000d0 3e 9e 81 81 81 73 81 7f 81 7f 7f 81 81 7f f5 81
       62 -98 -127 -127 -127 115 -127 127 -127 127 127 -127 -127 127 -11 -127
0000e0 81 9f 36 7f 7f 7f eb 81 5f 99 7f 7f 7f fd 7f 74
       -127 -97 54 127 127 127 -21 -127 95 -103 127 127 127 -3 127 116
0000f0 cb b6 91 7f 4a d1 39 e8 4b 17 14 d1 0c 48 3d c1
       -53 -74 -111 127 74 -47 57 -24 75 23 20 -47 12 72 61 -63

model_1/block_1_project/Conv2D i1 [8, 1, 1, 48]
000000 d4 fe 1f 06 df f1 0a 08 d6 fb bf c9 e6 bf f4 df
       -44 -2 31 6 -33 -15 10 8 -42 -5 -65 -55 -26 -65 -12 -33
000010 29 d9 25 2a f0 21 de 0f 01 d6 34 f1 fa ea 0f 09
       41 -39 37 42 -16 33 -34 15 1 -42 52 -15 -6 -22 15 9
000020 51 23 25 81 10 fd ed e1 02 e9 2b 2f 21 08 19 03
       81 35 37 -127 16 -3 -19 -31 2 -23 43 47 33 8 25 3
000030 04 21 3f e1 f4 2b d0 ea 02 18 f3 a3 08 56 f0 35
       4 33 63 -31 -12 43 -48 -22 2 24 -13 -93 8 86 -16 53
000040 ea 16 e9 c6 10 b2 e8 16 bc f1 f9 8f e5 f0 1d cd
       -22 22 -23 -58 16 -78 -24 22 -68 -15 -7 -113 -27 -16 29 -51
000050 31 51 da ff 7f df fd 32 de 22 ae e1 6f ec dd e7
       49 81 -38 -1 127 -33 -3 50 -34 34 -82 -31 111 -20 -35 -25
000060 f9 e8 c4 12 ff 2d 19 04 f5 26 01 16 41 a5 12 c2
       -7 -24 -60 18 -1 45 25 4 -11 38 1 22 65 -91 18 -62
000070 25 a2 14 1d eb 2e fb 1e ea 3a ed b5 11 07 15 b9
       37 -94 20 29 -21 46 -5 30 -22 58 -19 -75 17 7 21 -71
000080 d7 ab 25 e0 69 15 f8 c8 fd 1d 50 19 7f 10 13 18
       -41 -85 37 -32 105 21 -8 -56 -3 29 80 25 127 16 19 24
000090 fd 15 b9 29 10 dc bb 9b 0e ea dc 00 07 1a 22 4d
       -3 21 -71 41 16 -36 -69 -101 14 -22 -36 0 7 26 34 77
0000a0 fc 0c de 1d 02 a0 1a cb b8 fa 7f f3 d9 04 c2 0f
       -4 12 -34 29 2 -96 26 -53 -72 -6 127 -13 -39 4 -62 15
0000b0 fe af 08 f6 ee db eb 62 d6 dd 04 14 28 06 dc 2b
       -2 -81 8 -10 -18 -37 -21 98 -42 -35 4 20 40 6 -36 43
0000c0 e4 cf fb 0b 1e e6 f3 f6 1c e4 38 b4 05 1e 07 0c
       -28 -49 -5 11 30 -26 -13 -10 28 -28 56 -76 5 30 7 12
0000d0 f3 e6 0d ef fb ca 02 ee 0e f8 29 2e 21 16 f3 1a
       -13 -26 13 -17 -5 -54 2 -18 14 -8 41 46 33 22 -13 26
0000e0 f4 fe 02 00 bd 56 26 e6 20 ed ed eb b5 0d 7f 0b
       -12 -2 2 0 -67 86 38 -26 32 -19 -19 -21 -75 13 127 11
0000f0 2c e9 03 11 1c d8 22 81 18 e1 f7 73 b3 44 13 c1
       44 -23 3 17 28 -40 34 -127 24 -31 -9 115 -77 68 19 -63

model_1/block_2_expand/Conv2D i1 [48, 1, 1, 8]
000000 38 7f b4 ab 10 64 13 48 38 b7 3a 81 ca 50 9e e2
       56 127 -76 -85 16 100 19 72 56 -73 58 -127 -54 80 -98 -30
000010 e2 7d 7f 2c 6b 04 31 05 7a 18 89 32 f0 96 81 d5
       -30 125 127 44 107 4 49 5 122 24 -119 50 -16 -106 -127 -43
000020 cb 20 0d c0 da 69 7f 2f 12 4b 81 b5 24 5d 28 de
       -53 32 13 -64 -38 105 127 47 18 75 -127 -75 36 93 40 -34
000030 fd 7f 36 3e 40 04 0f b7 7f e5 dc 1c 1b 09 72 0b
       -3 127 54 62 64 4 15 -73 127 -27 -36 28 27 9 114 11
000040 3b 7f 38 69 6c 4a 66 a7 2d 7c 81 a4 14 60 01 41
       59 127 56 105 108 74 102 -89 45 124 -127 -92 20 96 1 65
000050 c6 dd 13 d3 02 db cf 7f 06 93 81 f0 09 fd 26 f3
       -58 -35 19 -45 2 -37 -49 127 6 -109 -127 -16 9 -3 38 -13
000060 e3 9d 81 dc 90 21 b8 27 f5 06 99 63 81 ea 04 f3
       -29 -99 -127 -36 -112 33 -72 39 -11 6 -103 99 -127 -22 4 -13
000070 c1 d4 81 f7 24 fd f5 ca 11 95 81 06 a1 ec ec f2
       -63 -44 -127 -9 36 -3 -11 -54 17 -107 -127 6 -95 -20 -20 -14
000080 7f be f0 44 ad 20 27 6c e1 72 7f e3 d3 f9 e9 ee
       127 -66 -16 68 -83 32 39 108 -31 114 127 -29 -45 -7 -23 -18
000090 03 81 2d 48 fb c6 36 a1 7f d2 ca 28 97 00 21 61
       3 -127 45 72 -5 -58 54 -95 127 -46 -54 40 -105 0 33 97
0000a0 e0 81 52 4a f3 ad ff b3 02 ce ef dd 7f f4 27 15
       -32 -127 82 74 -13 -83 -1 -77 2 -50 -17 -35 127 -12 39 21
0000b0 81 15 ba 32 31 39 ad 91 99 cd 44 fe 8e 7d 7f cd
       -127 21 -70 50 49 57 -83 -111 -103 -51 68 -2 -114 125 127 -51
0000c0 da 39 03 d9 d7 6c 7f f5 bd 81 88 d3 c1 e6 e6 c7
       -38 57 3 -39 -41 108 127 -11 -67 -127 -120 -45 -63 -26 -26 -57
0000d0 f2 46 f6 7f a0 21 c6 fe 0a 81 25 4f 12 ce 09 82
       -14 70 -10 127 -96 33 -58 -2 10 -127 37 79 18 -50 9 -126
0000e0 1f 6d 40 30 7f ef 28 c2 6e 24 df 01 60 81 9e 1e
       31 109 64 48 127 -17 40 -62 110 36 -33 1 96 -127 -98 30
0000f0 12 f9 20 81 13 ea 19 ea 2c cf 08 48 f3 21 12 7f
       18 -7 32 -127 19 -22 25 -22 44 -49 8 72 -13 33 18 127

model_1/block_2_depthwise_BN/FusedBatchNormV3;model_1/block_2_depthwise/depthwise;model_1/block_3_depthwise/depthwise i1 [1, 3, 3, 48]
000000 0a de 0a 0f e6 8d d3 3c e0 fa 02 08 2c f9 f3 07
       10 -34 10 15 -26 -115 -45 60 -32 -6 2 8 44 -7 -13 7
000010 62 fb 17 0e fb ea b2 15 01 f6 f9 dd c9 45 ec 8a
       98 -5 23 14 -5 -22 -78 21 1 -10 -7 -35 -55 69 -20 -118
000020 2c f8 c8 d0 f4 d7 0e 02 f7 2a 11 08 ed 40 7f ed
       44 -8 -56 -48 -12 -41 14 2 -9 42 17 8 -19 64 127 -19
000030 81 a6 ea 7f b3 38 9d 7f 29 10 11 fb 33 13 00 d8
       -127 -90 -22 127 -77 56 -99 127 41 16 17 -5 51 19 0 -40
000040 de 35 1c 0b 04 7c 0b 7f 7f e2 cc 22 43 81 ef b2
       -34 53 28 11 4 124 11 127 127 -30 -52 34 67 -127 -17 -78
000050 3f f5 d7 81 16 01 ca d9 88 ff 98 96 24 38 37 6c
       63 -11 -41 -127 22 1 -54 -39 -120 -1 -104 -106 36 56 55 108
000060 f7 fa 0b 11 de 0b 26 29 07 e0 10 04 ec fd 03 06
       -9 -6 11 17 -34 11 38 41 7 -32 16 4 -20 -3 3 6
000070 be 26 bf df f6 e2 7f 18 ce 01 05 fd 15 22 09 0b
       -66 38 -65 -33 -10 -30 127 24 -50 1 5 -3 21 34 9 11
000080 f7 ed d2 41 08 fe 14 32 19 ec 23 e1 f0 2b df f4
       -9 -19 -46 65 8 -2 20 50 25 -20 35 -31 -16 43 -33 -12
000090 f3 fa e4 03 15 90 7f ae f7 09 1e 22 7f 13 fe e4
       -13 -6 -28 3 21 -112 127 -82 -9 9 30 34 127 19 -2 -28
0000a0 ee d3 1a 35 38 b4 21 0a c0 7f b0 ec 7f 99 2c 81
       -18 -45 26 53 56 -76 33 10 -64 127 -80 -20 127 -103 44 -127
0000b0 d5 04 a8 1a 08 c0 da 12 7f 7f 13 81 b3 c5 00 4f
       -43 4 -88 26 8 -64 -38 18 127 127 19 -127 -77 -59 0 79
0000c0 66 81 7f ff 7f 52 b9 b4 27 7f 7f 81 a5 7f 7f 7f
       102 -127 127 -1 127 82 -71 -76 39 127 127 -127 -91 127 127 127
0000d0 7f 7f 7f 7f 7f 6f 05 0a 7a 9c 81 7f 28 78 7f f9
       127 127 127 127 127 111 5 10 122 -100 -127 127 40 120 127 -7
0000e0 81 7f 7f 7b 81 7f 81 9a 30 27 81 dd 7f 81 f7 5d
       -127 127 127 123 -127 127 -127 -102 48 39 -127 -35 127 -127 -9 93
0000f0 1d 29 d8 ff c5 7f 88 62 6f b8 1d 3d db 09 0f c3
       29 41 -40 -1 -59 127 -120 98 111 -72 29 61 -37 9 15 -61

model_1/block_2_project/Conv2D i1 [8, 1, 1, 48]
000000 d7 cd e9 b5 ff e7 57 4c 9d ac d7 05 cd f8 c1 24
       -41 -51 -23 -75 -1 -25 87 76 -99 -84 -41 5 -51 -8 -63 36
000010 a6 0b 11 7f 42 de 13 5f 41 57 1a 12 a1 c6 b2 c6
       -90 11 17 127 66 -34 19 95 65 87 26 18 -95 -58 -78 -58
000020 cf 61 1a ce 20 e6 5a f6 14 06 01 9a 27 e5 dd ac
       -49 97 26 -50 32 -26 90 -10 20 6 1 -102 39 -27 -35 -84
000030 f1 32 ea e2 b9 3a eb ce df 47 ed 10 33 2a d2 fb
       -15 50 -22 -30 -71 58 -21 -50 -33 71 -19 16 51 42 -46 -5
000040 ec 8d 43 ca 7f 0e c5 1a 38 01 b2 44 2b f3 4b 21
       -20 -115 67 -54 127 14 -59 26 56 1 -78 68 43 -13 75 33
000050 de f0 fe f5 08 70 f1 e6 3d 2f fe 0a 68 0b e1 38
       -34 -16 -2 -11 8 112 -15 -26 61 47 -2 10 104 11 -31 56
000060 e5 db 70 07 52 d5 f4 18 de 04 f4 2d 07 d5 d4 81
       -27 -37 112 7 82 -43 -12 24 -34 4 -12 45 7 -43 -44 -127
000070 cf 9c e4 0f a1 16 dc db cd 14 00 d3 db 08 e4 f9
       -49 -100 -28 15 -95 22 -36 -37 -51 20 0 -45 -37 8 -28 -7
000080 ff fa 18 f6 1a e2 ce 07 22 e3 21 d5 d9 d6 c3 cc
       -1 -6 24 -10 26 -30 -50 7 34 -29 33 -43 -39 -42 -61 -52
000090 37 0f 42 0a 12 d5 22 40 cc dd 31 e5 be 3b ed 36
       55 15 66 10 18 -43 34 64 -52 -35 49 -27 -66 59 -19 54
0000a0 40 25 e3 1f 98 bd 7f 03 0a 01 c9 de c6 45 7b b8
       64 37 -29 31 -104 -67 127 3 10 1 -55 -34 -58 69 123 -72
0000b0 0b 90 eb 34 f6 b0 ef 4e af c1 40 f3 a1 b4 39 fc
       11 -112 -21 52 -10 -80 -17 78 -81 -63 64 -13 -95 -76 57 -4
0000c0 15 ef 4a e1 07 fa fd fe c8 fb ea 05 30 b4 26 a1
       21 -17 74 -31 7 -6 -3 -2 -56 -5 -22 5 48 -76 38 -95
0000d0 28 31 fc da 06 24 0f 0c 05 ff 3b eb 1b 1a 81 ed
       40 49 -4 -38 6 36 15 12 5 -1 59 -21 27 26 -127 -19
0000e0 e1 ed 08 0f 2e fb 24 06 db f1 bb 1a f3 9b 04 17
       -31 -19 8 15 46 -5 36 6 -37 -15 -69 26 -13 -101 4 23
0000f0 1e cf 41 27 24 1f 1b ff b3 f4 d3 20 23 08 0e d3
       30 -49 65 39 36 31 27 -1 -77 -12 -45 32 35 8 14 -45

model_1/block_3_expand/Conv2D i1 [48, 1, 1, 8]
000000 3e 1e 7f df 40 6c b5 cf 07 b3 81 04 2f 16 21 00
       62 30 127 -33 64 108 -75 -49 7 -77 -127 4 47 22 33 0
000010 81 fe d5 eb 35 20 b9 df 2a 46 7f b4 f3 9a f7 f2
       -127 -2 -43 -21 53 32 -71 -33 42 70 127 -76 -13 -102 -9 -14
000020 81 16 cc ea 2d 0f df c4 9d 19 c9 ea 04 22 a7 81
       -127 22 -52 -22 45 15 -33 -60 -99 25 -55 -22 4 34 -89 -127
000030 d6 81 8a 2b 68 08 0c 32 c1 81 99 b3 b3 c0 11 5a
       -42 -127 -118 43 104 8 12 50 -63 -127 -103 -77 -77 -64 17 90
000040 4e 23 00 02 6a be 81 15 e2 36 cd 56 c0 d4 7f e0
       78 35 0 2 106 -66 -127 21 -30 54 -51 86 -64 -44 127 -32
000050 e3 7c 29 41 7f ef f7 37 b3 e0 ea f3 b2 60 7f fc
       -29 124 41 65 127 -17 -9 55 -77 -32 -22 -13 -78 96 127 -4
000060 42 21 81 22 f4 e2 be f1 41 e0 b7 11 0d 81 e3 ea
       66 33 -127 34 -12 -30 -66 -15 65 -32 -73 17 13 -127 -29 -22
000070 05 b1 4d 0b 7f 9d c7 0d d2 d5 00 7f 47 57 b4 22
       5 -79 77 11 127 -99 -57 13 -46 -43 0 127 71 87 -76 34
000080 78 1d d8 13 47 90 81 e4 37 7f 39 44 31 3e 14 af
       120 29 -40 19 71 -112 -127 -28 55 127 57 68 49 62 20 -81
000090 20 f7 fa 02 7f 09 16 f8 0c 7f 1f 0e 87 16 15 e0
       32 -9 -6 2 127 9 22 -8 12 127 31 14 -121 22 21 -32
0000a0 d5 0f 43 81 12 27 f3 67 d9 4a 28 81 1d 30 ea 70
       -43 15 67 -127 18 39 -13 103 -39 74 40 -127 29 48 -22 112
0000b0 b1 b7 a6 13 81 7d 7b e7 55 2b 81 17 0c d9 b9 f1
       -79 -73 -90 19 -127 125 123 -25 85 43 -127 23 12 -39 -71 -15
0000c0 d8 30 ff f9 eb 41 81 5c 96 ca 81 0e cb b8 47 65
       -40 48 -1 -7 -21 65 -127 92 -106 -54 -127 14 -53 -72 71 101
0000d0 31 f7 da df 66 f0 7f d6 7f be 1b 4d f6 1c e1 5d
       49 -9 -38 -33 102 -16 127 -42 127 -66 27 77 -10 28 -31 93
0000e0 37 2c 2c ec 7f bc 49 de ed f4 df cf bd 13 7f e2
       55 44 44 -20 127 -68 73 -34 -19 -12 -33 -49 -67 19 127 -30
0000f0 28 81 c8 c0 94 04 01 d2 0c 19 f6 f4 81 08 e5 f6
       40 -127 -56 -64 -108 4 1 -46 12 25 -10 -12 -127 8 -27 -10

model_1/block_3_depthwise_BN/FusedBatchNormV3;model_1/block_3_depthwise/depthwise i1 [1, 3, 3, 48]
000000 97 4f 81 62 a1 2d c2 75 b5 b3 3b ba 44 be c3 cf
       -105 79 -127 98 -95 45 -62 117 -75 -77 59 -70 68 -66 -61 -49
000010 4e 43 58 95 58 99 65 b3 90 bb 4c 7c a8 cd 83 58
       78 67 88 -107 88 -103 101 -77 -112 -69 76 124 -88 -51 -125 88
000020 45 a5 3d 99 bb 81 64 ce f6 a1 7f b5 63 3d b1 b9
       69 -91 61 -103 -69 -127 100 -50 -10 -95 127 -75 99 61 -79 -71
000030 93 5f c9 73 b3 61 d1 7f 96 9f 5e aa 59 9a b9 b5
       -109 95 -55 115 -77 97 -47 127 -106 -97 94 -86 89 -102 -71 -75
000040 68 63 7f 81 67 82 76 91 8e 9a 46 71 1e b0 90 68
       104 99 127 -127 103 -126 118 -111 -114 -102 70 113 30 -80 -112 104
000050 5d 81 54 90 9a 86 79 b5 92 78 6c c3 e1 6a a0 98
       93 -127 84 -112 -102 -122 121 -75 -110 120 108 -61 -31 106 -96 -104
000060 c6 3b 02 20 ef 31 e6 46 c7 d7 28 d8 2a cc e7 ec
       -58 59 2 32 -17 49 -26 70 -57 -41 40 -40 42 -52 -25 -20
000070 30 32 45 cf 12 e6 29 d6 b9 e2 13 18 53 df b6 16
       48 50 69 -49 18 -26 41 -42 -71 -30 19 24 83 -33 -74 22
000080 24 b0 22 e0 ef e1 39 df 94 c5 2f dd b4 3f d7 cc
       36 -80 34 -32 -17 -31 57 -33 -108 -59 47 -35 -76 63 -41 -52
000090 8e 67 bd 63 a6 59 81 71 a3 96 50 b2 56 9f a5 a3
       -114 103 -67 99 -90 89 -127 113 -93 -106 80 -78 86 -97 -91 -93
0000a0 67 54 d4 b7 6c 83 64 af 81 9f 6d 7f 81 a7 8f 59
       103 84 -44 -73 108 -125 100 -81 -127 -97 109 127 -127 -89 -113 89
0000b0 5e 20 62 93 9c 8b 71 b8 ac 85 79 81 7f 42 96 96
       94 32 98 -109 -100 -117 113 -72 -84 -123 121 -127 127 66 -106 -106
0000c0 81 7f 9d 7f 81 7f 83 7f 81 81 7f 81 7f 81 81 81
       -127 127 -99 127 -127 127 -125 127 -127 -127 127 -127 127 -127 -127 -127
0000d0 7f 7f c6 a2 7f 81 7f 81 92 81 7f 78 1f 81 81 7f
       127 127 -58 -94 127 -127 127 -127 -110 -127 127 120 31 -127 -127 127
0000e0 7f 2a 7f 81 81 ab 7f 81 81 7f 70 9a c1 7f 81 81
       127 42 127 -127 -127 -85 127 -127 -127 127 112 -102 -63 127 -127 -127
0000f0 ae 4c b8 2a d8 28 c7 27 c3 cf 38 c0 2e b6 c6 ea
       -82 76 -72 42 -40 40 -57 39 -61 -49 56 -64 46 -74 -58 -22

model_1/block_3_project/Conv2D i1 [16, 1, 1, 48]
000000 20 31 11 df 47 43 d8 44 e9 75 05 33 dc 26 f1 2d
       32 49 17 -33 71 67 -40 68 -23 117 5 51 -36 38 -15 45
000010 22 50 28 b8 bc 4a fc 34 3b 27 24 30 d3 d2 fa 59
       34 80 40 -72 -68 74 -4 52 59 39 36 48 -45 -46 -6 89
000020 d7 08 b5 33 37 81 db 0d 07 e4 3f f9 fe c4 c7 eb
       -41 8 -75 51 55 -127 -37 13 7 -28 63 -7 -2 -60 -57 -21
000030 c9 ff af d8 09 5b cc 0f f2 e2 d7 23 3c f2 e3 e4
       -55 -1 -81 -40 9 91 -52 15 -14 -30 -41 35 60 -14 -29 -28
000040 e7 e3 f8 0f c2 28 99 d7 c9 de 2d 42 eb e6 2b d3
       -25 -29 -8 15 -62 40 -103 -41 -55 -34 45 66 -21 -26 43 -45
000050 08 c9 e2 30 0a cb 7f dc e6 20 d0 ed 25 37 1b 0e
       8 -55 -30 48 10 -53 127 -36 -26 32 -48 -19 37 55 27 14
000060 0a 06 3a e7 eb ad 16 1a 67 4b bf 0c 65 d4 7f 55
       10 6 58 -25 -21 -83 22 26 103 75 -65 12 101 -44 127 85
000070 b8 ec e8 18 51 b9 e2 9e 14 de 1f ba 20 30 d8 12
       -72 -20 -24 24 81 -71 -30 -98 20 -34 31 -70 32 48 -40 18
000080 1a e3 34 27 c5 0e f9 e3 21 17 46 f5 16 a6 57 c9
       26 -29 52 39 -59 14 -7 -29 33 23 70 -11 22 -90 87 -55
000090 2b 05 ef e1 1f 71 13 ea 30 d2 14 e4 ca 0a 0d 2d
       43 5 -17 -31 31 113 19 -22 48 -46 20 -28 -54 10 13 45
0000a0 d0 ba 22 81 f3 05 e8 ea de 5b 79 3d f1 d9 18 2c
       -48 -70 34 -127 -13 5 -24 -22 -34 91 121 61 -15 -39 24 44
0000b0 3d df 5c 24 d6 c9 fd 27 1e 09 f6 05 1a 13 f2 e6
       61 -33 92 36 -42 -55 -3 39 30 9 -10 5 26 19 -14 -26
0000c0 6a f8 07 cb 5c 54 2f 0a 47 f4 98 20 2e e9 0a f4
       106 -8 7 -53 92 84 47 10 71 -12 -104 32 46 -23 10 -12
0000d0 a3 87 eb a2 ea 21 d8 d8 b4 7a 97 7f cb d0 1d 58
       -93 -121 -21 -94 -22 33 -40 -40 -76 122 -105 127 -53 -48 29 88
0000e0 20 c6 0a e2 fe 10 e8 15 d2 f0 fa 3c cb 63 e3 cd
       32 -58 10 -30 -2 16 -24 21 -46 -16 -6 60 -53 99 -29 -51
0000f0 ff ff c9 07 f1 3a 10 e4 3b 33 28 56 33 ed 1c fa
       -1 -1 -55 7 -15 58 16 -28 59 51 40 86 51 -19 28 -6

model_1/block_4_expand/Conv2D i1 [96, 1, 1, 16]
000000 2c 15 f4 41 81 ec 79 34 30 67 f0 46 1b 05 1c 63
       44 21 -12 65 -127 -20 121 52 48 103 -16 70 27 5 28 99
000010 df 27 9e f5 7f 68 06 00 d1 14 c3 2d b5 6a ba e2
       -33 39 -98 -11 127 104 6 0 -47 20 -61 45 -75 106 -70 -30
000020 d6 40 4d 01 3c 50 03 28 23 fa 2a f1 2d 81 fc 0b
       -42 64 77 1 60 80 3 40 35 -6 42 -15 45 -127 -4 11
000030 7f da 17 0b 1d 1c ee 08 25 17 c2 e4 e0 2a dd 2a
       127 -38 23 11 29 28 -18 8 37 23 -62 -28 -32 42 -35 42
000040 ab ec 0d 1b 83 ff ab df f6 19 f6 be e9 21 d9 7f
       -85 -20 13 27 -125 -1 -85 -33 -10 25 -10 -66 -23 33 -39 127
000050 a3 07 13 fd 7f 35 03 16 d4 21 e0 19 a4 3b 84 e9
       -93 7 19 -3 127 53 3 22 -44 33 -32 25 -92 59 -124 -23
000060 81 1b dd 1a 00 c0 4c 08 ff ea c5 2a 11 09 d4 10
       -127 27 -35 26 0 -64 76 8 -1 -22 -59 42 17 9 -44 16
000070 ec 7d 2f b2 52 4e 7f 19 36 05 1b 1a 64 25 ce 04
       -20 125 47 -78 82 78 127 25 54 5 27 26 100 37 -50 4
000080 e1 f1 cd 45 d8 39 cb bd 2a e0 41 1c 7f 24 b4 00
       -31 -15 -51 69 -40 57 -53 -67 42 -32 65 28 127 36 -76 0
000090 e3 81 ea 64 d8 c5 07 3a 34 2d 0c 49 b0 17 fd df
       -29 -127 -22 100 -40 -59 7 58 52 45 12 73 -80 23 -3 -33
0000a0 d1 d5 92 3a a6 7f 35 bf 15 d4 40 cc 1b 69 c1 5d
       -47 -43 -110 58 -90 127 53 -65 21 -44 64 -52 27 105 -63 93
0000b0 ba 93 db 2a f5 54 29 01 18 fe 31 8c 0b 6a 85 7f
       -70 -109 -37 42 -11 84 41 1 24 -2 49 -116 11 106 -123 127
0000c0 ee 99 b6 66 a2 81 0b 2f 55 4b dc 6e 04 b6 ef f2
       -18 -103 -74 102 -94 -127 11 47 85 75 -36 110 4 -74 -17 -14
0000d0 bc ee db 00 ee 01 22 11 eb 7f fb e9 27 20 18 f7
       -68 -18 -37 0 -18 1 34 17 -21 127 -5 -23 39 32 24 -9
0000e0 85 df d7 ce f5 5b eb c2 7f c3 42 f5 68 da b3 a9
       -123 -33 -41 -50 -11 91 -21 -62 127 -61 66 -11 104 -38 -77 -87
0000f0 08 81 69 be c9 e1 05 36 12 cf 99 db 64 d1 df cc
       8 -127 105 -66 -55 -31 5 54 18 -49 -103 -37 100 -47 -33 -52

model_1/block_4_depthwise_BN/FusedBatchNormV3;model_1/block_4_depthwise/depthwise;model_1/block_6_expand/Conv2D i1 [1, 3, 3, 96]
000000 dc fb 00 df 57 ea 3a ee f5 fa f1 e0 ed 06 ed d9
       -36 -5 0 -33 87 -22 58 -18 -11 -6 -15 -32 -19 6 -19 -39
000010 ef 07 e1 e9 09 28 15 29 0b d5 eb 0a 12 06 1c 01
       -17 7 -31 -23 9 40 21 41 11 -43 -21 10 18 6 28 1
000020 fe 03 f4 d5 07 b9 da f4 ff 05 30 dd e1 20 c2 e8
       -2 3 -12 -43 7 -71 -38 -12 -1 5 48 -35 -31 32 -62 -24
000030 dd 06 ea 41 c7 04 1e f6 0e f1 0b ee fb ea f0 e0
       -35 6 -22 65 -57 4 30 -10 14 -15 11 -18 -5 -22 -16 -32
000040 e9 ed da cf e7 20 0c ff 13 05 fc 01 01 15 7f f7
       -23 -19 -38 -49 -25 32 12 -1 19 5 -4 1 1 21 127 -9
000050 89 0a 91 f6 cc f6 15 02 d6 f0 21 d0 02 1e da 02
       -119 10 -111 -10 -52 -10 21 2 -42 -16 33 -48 2 30 -38 2
000060 e2 20 19 ae d7 07 7f c4 ff ec d6 0d d1 05 9c 3a
       -30 32 25 -82 -41 7 127 -60 -1 -20 -42 13 -47 5 -100 58
000070 f6 52 37 d9 01 7f 58 70 23 f6 30 4b 7f 29 7f db
       -10 82 55 -39 1 127 88 112 35 -10 48 75 127 41 127 -37
000080 8b f0 a3 f2 f5 b2 7f c2 e0 a0 01 d4 31 d6 eb f2
       -117 -16 -93 -14 -11 -78 127 -62 -32 -96 1 -44 49 -42 -21 -14
000090 33 07 07 7f a4 25 b3 ff bf f2 ff 17 fa 81 81 b9
       51 7 7 127 -92 37 -77 -1 -65 -14 -1 23 -6 -127 -127 -71
0000a0 c1 fc 00 a7 ee 16 e0 7f 81 f5 0d e4 b5 b5 03 b9
       -63 -4 0 -89 -18 22 -32 127 -127 -11 13 -28 -75 -75 3 -71
0000b0 b6 01 17 d2 78 50 cf 1a 81 03 3b f8 0a 7f be b0
       -74 1 23 -46 120 80 -49 26 -127 3 59 -8 10 127 -66 -80
0000c0 da f9 fe f9 34 f6 4e e2 eb 0b f3 03 f1 05 ee cb
       -38 -7 -2 -7 52 -10 78 -30 -21 11 -13 3 -15 5 -18 -53
0000d0 f0 05 d7 e0 04 1b 15 1c 0f e6 f9 fa 0b 0d 11 05
       -16 5 -41 -32 4 27 21 28 15 -26 -7 -6 11 13 17 5
0000e0 f7 01 e9 3d 02 b6 e2 0b fa 1c 23 f2 e9 df ca e0
       -9 1 -23 61 2 -74 -30 11 -6 28 35 -14 -23 -33 -54 -32
0000f0 e7 00 eb 31 13 ed 0b f4 4b e9 0c e8 fd f3 cd f4
       -25 0 -21 49 19 -19 11 -12 75 -23 12 -24 -3 -13 -51 -12

model_1/block_4_project/Conv2D i1 [16, 1, 1, 96]
000000 1b 23 15 13 f3 b4 f7 fc ea ae 09 f8 3f ad 36 23
       27 35 21 19 -13 -76 -9 -4 -22 -82 9 -8 63 -83 54 35
000010 b4 d8 26 06 53 20 b8 15 ee 46 7f 46 0a 4c 47 d5
       -76 -40 38 6 83 32 -72 21 -18 70 127 70 10 76 71 -43
000020 0a ff 06 dd 15 13 ec fc 77 12 06 f3 f8 f6 0c db
       10 -1 6 -35 21 19 -20 -4 119 18 6 -13 -8 -10 12 -37
000030 19 da 5e 08 b9 fd 2e 22 00 df ff 11 fd 31 c1 f5
       25 -38 94 8 -71 -3 46 34 0 -33 -1 17 -3 49 -63 -11
000040 14 0d 41 1c 04 e6 0e 15 0e 21 00 1d 3e e7 2e 15
       20 13 65 28 4 -26 14 21 14 33 0 29 62 -25 46 21
000050 f0 27 29 1a c8 f8 fa 42 15 0c a7 ef 1e 0c 6f 4f
       -16 39 41 26 -56 -8 -6 66 21 12 -89 -17 30 12 111 79
000060 10 22 cb f3 05 d4 68 b6 c2 d5 b9 d3 00 d8 fa c3
       16 34 -53 -13 5 -44 104 -74 -62 -43 -71 -45 0 -40 -6 -61
000070 d5 e9 de f0 f6 9e 70 dd f8 16 06 43 ce 02 d6 15
       -43 -23 -34 -16 -10 -98 112 -35 -8 22 6 67 -50 2 -42 21
000080 da 1c 12 02 ee 3e c7 53 17 11 07 c9 3e c3 f8 26
       -38 28 18 2 -18 62 -57 83 23 17 7 -55 62 -61 -8 38
000090 aa fa 2b 8d d6 26 3e 3e 1e 15 ca 07 d1 fd f7 ea
       -86 -6 43 -115 -42 38 62 62 30 21 -54 7 -47 -3 -9 -22
0000a0 1d 20 67 11 cc 81 01 04 12 48 ec 27 c4 de 67 dc
       29 32 103 17 -52 -127 1 4 18 72 -20 39 -60 -34 103 -36
0000b0 32 f8 3f c6 e8 ba e8 11 e6 d2 19 04 47 c8 e1 31
       50 -8 63 -58 -24 -70 -24 17 -26 -46 25 4 71 -56 -31 49
0000c0 0b f3 14 f8 33 25 ce 13 d4 23 0b e7 21 ee 0d 1f
       11 -13 20 -8 51 37 -50 19 -44 35 11 -25 33 -18 13 31
0000d0 23 e4 81 00 f2 dd ed 16 f1 f5 d6 16 dd f2 f4 3e
       35 -28 -127 0 -14 -35 -19 22 -15 -11 -42 22 -35 -14 -12 62
0000e0 f9 e1 02 12 d7 10 e8 f2 40 07 fe 2d 0b 39 01 fe
       -7 -31 2 18 -41 16 -24 -14 64 7 -2 45 11 57 1 -2
0000f0 bb 0d ee 14 ed 2a 0f cc 1f 11 24 19 ea fd f5 3a
       -69 13 -18 20 -19 42 15 -52 31 17 36 25 -22 -3 -11 58

model_1/block_5_expand/Conv2D i1 [96, 1, 1, 16]
000000 dd 1f 05 e4 eb bf cc d3 40 db 15 d2 50 8b 1a 81
       -35 31 5 -28 -21 -65 -52 -45 64 -37 21 -46 80 -117 26 -127
000010 ad 52 8d 8e bc 10 fc 32 c6 fc 69 db 21 7f 14 37
       -83 82 -115 -114 -68 16 -4 50 -58 -4 105 -37 33 127 20 55
000020 c5 f6 ad fb d8 c2 24 c6 96 7f 4d 07 24 48 ca 79
       -59 -10 -83 -5 -40 -62 36 -58 -106 127 77 7 36 72 -54 121
000030 c9 b6 04 d9 a8 0d ce 81 f6 0a 2d b6 b8 df 91 d6
       -55 -74 4 -39 -88 13 -50 -127 -10 10 45 -74 -72 -33 -111 -42
000040 3a fb f7 2e c4 09 81 2d 17 3a 04 24 0f fd d0 b4
       58 -5 -9 46 -60 9 -127 45 23 58 4 36 15 -3 -48 -76
000050 92 39 a2 e9 38 e1 f5 cb 4b de 11 dc 0f 94 81 a6
       -110 57 -94 -23 56 -31 -11 -53 75 -34 17 -36 15 -108 -127 -90
000060 f2 d8 da 16 96 3e 29 d7 e9 cc 7f e5 f5 fd 83 1a
       -14 -40 -38 22 -106 62 41 -41 -23 -52 127 -27 -11 -3 -125 26
000070 e2 6c 7f a7 3c 50 07 c7 24 3a a1 ed 43 02 07 4e
       -30 108 127 -89 60 80 7 -57 36 58 -95 -19 67 2 7 78
000080 c8 0e 26 04 44 15 5d 7f b4 fb bb a8 24 5c a5 ba
       -56 14 38 4 68 21 93 127 -76 -5 -69 -88 36 92 -91 -70
000090 2c 35 62 23 91 d6 ac 81 44 0c 7e 23 d0 8d 3a ea
       44 53 98 35 -111 -42 -84 -127 68 12 126 35 -48 -115 58 -22
0000a0 fa 81 18 ca 8c 39 1e 12 de be f1 17 eb 2f 9f 0c
       -6 -127 24 -54 -116 57 30 18 -34 -66 -15 23 -21 47 -97 12
0000b0 73 c7 fa 57 97 d5 31 e4 7f 6f ca 39 0d b1 fb 65
       115 -57 -6 87 -105 -43 49 -28 127 111 -54 57 13 -79 -5 101
0000c0 a2 cd 7f db 6c fd 2f 54 4c f1 74 54 eb 1f 84 11
       -94 -51 127 -37 108 -3 47 84 76 -15 116 84 -21 31 -124 17
0000d0 fb d7 1d 20 10 0f 7f 2a 9b 0c 00 0b e5 7a 5c ab
       -5 -41 29 32 16 15 127 42 -101 12 0 11 -27 122 92 -85
0000e0 79 a1 79 04 4b 47 7f 56 5e 64 54 24 61 d6 22 d5
       121 -95 121 4 75 71 127 86 94 100 84 36 97 -42 34 -43
0000f0 06 72 06 c5 28 7b c5 30 d2 e5 d8 03 cb 7f f1 d3
       6 114 6 -59 40 123 -59 48 -46 -27 -40 3 -53 127 -15 -45

model_1/block_5_depthwise_BN/FusedBatchNormV3;model_1/block_5_depthwise/depthwise;model_1/block_6_expand/Conv2D i1 [1, 3, 3, 96]
000000 26 71 01 0f d9 13 21 2c 45 aa 9e 12 fd f6 46 ce
       38 113 1 15 -39 19 33 44 69 -86 -98 18 -3 -10 70 -50
000010 af 12 20 26 2d 34 65 6e 14 eb da fa 0c 1a 12 e7
       -81 18 32 38 45 52 101 110 20 -21 -38 -6 12 26 18 -25
000020 c7 00 eb 72 f1 4d 0f d9 19 d6 0f 28 b9 df 02 ec
       -57 0 -21 114 -15 77 15 -39 25 -42 15 40 -71 -33 2 -20
000030 df 89 00 f5 24 4a e1 fe b8 b8 cf 81 81 03 9e 05
       -33 -119 0 -11 36 74 -31 -2 -72 -72 -49 -127 -127 3 -98 5
000040 dc 32 f9 fc fe 20 21 f7 eb 08 2a 16 ff d2 d3 21
       -36 50 -7 -4 -2 32 33 -9 -21 8 42 22 -1 -46 -45 33
000050 09 c8 36 c6 c3 c8 01 19 8d ff 88 2b 48 f6 3e fc
       9 -56 54 -58 -61 -56 1 25 -115 -1 -120 43 72 -10 62 -4
000060 e6 de 08 57 f3 63 eb fd 3f 10 81 35 df c4 b5 77
       -26 -34 8 87 -13 99 -21 -3 63 16 -127 53 -33 -60 -75 119
000070 a5 40 46 56 7f 0a 7f 7f 24 0e 16 35 17 7f fb 8d
       -91 64 70 86 127 10 127 127 36 14 22 53 23 127 -5 -115
000080 44 46 14 45 34 77 ed 84 7f f2 55 7f d0 bc 7f c6
       68 70 20 69 52 119 -19 -124 127 -14 85 127 -48 -68 127 -58
000090 fc 81 ad e3 1d 7f e5 81 00 1d ab ac d5 81 e3 51
       -4 -127 -83 -29 29 127 -27 -127 0 29 -85 -84 -43 -127 -29 81
0000a0 e5 5c 76 e5 04 7f 7f 03 c2 17 e3 88 03 c6 ff 7f
       -27 92 118 -27 4 127 127 3 -62 23 -29 -120 3 -58 -1 127
0000b0 fe e3 7f aa 90 c4 5b 41 48 4a 9c 08 7f e9 7f 2a
       -2 -29 127 -86 -112 -60 91 65 72 74 -100 8 127 -23 127 42
0000c0 20 8f 03 fb ea 03 f5 31 28 2d a3 27 f2 32 27 ca
       32 -113 3 -5 -22 3 -11 49 40 45 -93 39 -14 50 39 -54
0000d0 eb 11 12 19 2b 27 51 6c 16 d6 1e 1c 1f 1c fb bc
       -21 17 18 25 43 39 81 108 22 -42 30 28 31 28 -5 -68
0000e0 d0 ad e6 54 f3 1c 18 e7 f4 1d 05 38 f0 ec f6 fc
       -48 -83 -26 84 -13 28 24 -25 -12 29 5 56 -16 -20 -10 -4
0000f0 25 a6 0f 10 18 0a 08 05 2b b0 f5 b3 8c 05 bb 02
       37 -90 15 16 24 10 8 5 43 -80 -11 -77 -116 5 -69 2

model_1/block_5_project/Conv2D i1 [16, 1, 1, 96]
000000 99 22 36 dd bf f8 c0 fa cd 0e f8 de 1f 34 22 e1
       -103 34 54 -35 -65 -8 -64 -6 -51 14 -8 -34 31 52 34 -31
000010 0c fc 5f 11 00 ce 7b 4c 31 16 f8 19 bd 81 9e 05
       12 -4 95 17 0 -50 123 76 49 22 -8 25 -67 -127 -98 5
000020 d7 cb 1b 1b 11 1f 02 0f fe fb b2 0c b2 ee fe 52
       -41 -53 27 27 17 31 2 15 -2 -5 -78 12 -78 -18 -2 82
000030 ed 0b c6 ea 04 01 16 c2 a0 0c f0 4f 3b 21 05 fd
       -19 11 -58 -22 4 1 22 -62 -96 12 -16 79 59 33 5 -3
000040 d6 c4 d0 16 c1 b8 04 f3 0b 01 b2 d7 cd 0a c9 05
       -42 -60 -48 22 -63 -72 4 -13 11 1 -78 -41 -51 10 -55 5
000050 c6 3a 50 ac 13 30 11 2d 28 f5 f7 ea e1 dc ca 0f
       -58 58 80 -84 19 48 17 45 40 -11 -9 -22 -31 -36 -54 15
000060 20 06 22 d3 b7 e1 f1 10 e6 1d 2d c1 fe ee c3 d0
       32 6 34 -45 -73 -31 -15 16 -26 29 45 -63 -2 -18 -61 -48
000070 f4 04 ba 0e fc ae 02 25 e8 b6 01 d1 43 89 75 a8
       -12 4 -70 14 -4 -82 2 37 -24 -74 1 -47 67 -119 117 -88
000080 35 1c f2 2b 1f 46 fa da 1d 12 f6 f5 0f 32 81 c8
       53 28 -14 43 31 70 -6 -38 29 18 -10 -11 15 50 -127 -56
000090 c0 c5 f9 e8 2d d4 dd 27 06 ff e4 19 17 41 f0 a3
       -64 -59 -7 -24 45 -44 -35 39 6 -1 -28 25 23 65 -16 -93
0000a0 eb ef c5 fb 0b e4 b1 f6 d8 e6 0f b2 0d 14 27 bc
       -21 -17 -59 -5 11 -28 -79 -10 -40 -26 15 -78 13 20 39 -68
0000b0 df e0 a3 e7 26 d1 e4 15 aa f0 c3 22 1a 49 c7 40
       -33 -32 -93 -25 38 -47 -28 21 -86 -16 -61 34 26 73 -57 64
0000c0 4f ea 0b 0f 17 c1 32 ff fe fa fe f5 c0 f2 02 e7
       79 -22 11 15 23 -63 50 -1 -2 -6 -2 -11 -64 -14 2 -25
0000d0 b2 cf dd 2b 00 ca dd 23 0f c6 05 e4 df 25 c9 7f
       -78 -49 -35 43 0 -54 -35 35 15 -58 5 -28 -33 37 -55 127
0000e0 d4 6b e5 1e fa f6 ea ed a4 52 47 16 bd 0e e9 ed
       -44 107 -27 30 -6 -10 -22 -19 -92 82 71 22 -67 14 -23 -19
0000f0 24 05 dd cf 2a e8 eb 36 2d 03 25 ff 0d 29 ec 01
       36 5 -35 -49 42 -24 -21 54 45 3 37 -1 13 41 -20 1

model_1/block_6_expand/Conv2D i1 [96, 1, 1, 16]
000000 f5 60 b8 29 2f ea 5b 4a b8 08 1d a7 4e 7f c8 10
       -11 96 -72 41 47 -22 91 74 -72 8 29 -89 78 127 -56 16
000010 e5 fc c0 e4 f1 23 1c 81 1b ce ef d0 ee dc be 0b
       -27 -4 -64 -28 -15 35 28 -127 27 -50 -17 -48 -18 -36 -66 11
000020 e9 de 25 50 15 2f 8e 7f ec ff 49 c6 f0 b5 d8 42
       -23 -34 37 80 21 47 -114 127 -20 -1 73 -58 -16 -75 -40 66
000030 4c aa 41 fa f8 de e7 7f de 30 43 32 f5 31 06 0c
       76 -86 65 -6 -8 -34 -25 127 -34 48 67 50 -11 49 6 12
000040 d1 e4 f1 2a ae 08 ea 81 0a f2 27 f9 1b 2a 66 72
       -47 -28 -15 42 -82 8 -22 -127 10 -14 39 -7 27 42 102 114
000050 7f 1a e9 de b3 10 24 45 0e ea 44 62 75 1f 95 0b
       127 26 -23 -34 -77 16 36 69 14 -22 68 98 117 31 -107 11
000060 17 e6 cb d3 c1 0c f9 d9 d4 d2 df 14 5a 39 7f f2
       23 -26 -53 -45 -63 12 -7 -39 -44 -46 -33 20 90 57 127 -14
000070 c5 1a e0 b6 00 c6 bf 09 aa 2e c4 c9 81 d9 09 56
       -59 26 -32 -74 0 -58 -65 9 -86 46 -60 -55 -127 -39 9 86
000080 2d 25 48 09 32 10 41 08 44 ea 25 0b 81 e4 b7 09
       45 37 72 9 50 16 65 8 68 -22 37 11 -127 -28 -73 9
000090 db 37 1d db e1 ee 18 f9 e8 31 d6 05 2e 7f 1a 16
       -37 55 29 -37 -31 -18 24 -7 -24 49 -42 5 46 127 26 22
0000a0 5a 3f d4 42 e4 f7 32 cf a3 de b9 86 81 b3 13 63
       90 63 -44 66 -28 -9 50 -49 -93 -34 -71 -122 -127 -77 19 99
0000b0 2c 03 3c 06 f2 e0 0f 69 a8 15 e5 05 ef f9 3e 7f
       44 3 60 6 -14 -32 15 105 -88 21 -27 5 -17 -7 62 127
0000c0 d1 e5 05 ef 0e f7 7f 23 cb 1a 0b f6 f0 45 d6 70
       -47 -27 5 -17 14 -9 127 35 -53 26 11 -10 -16 69 -42 112
0000d0 0b 32 20 2b 75 23 7b 68 db 63 b2 d6 17 48 81 f2
       11 50 32 43 117 35 123 104 -37 99 -78 -42 23 72 -127 -14
0000e0 81 7a 0e f1 f8 04 3f 02 cf 1d 7e ff 95 17 d6 2e
       -127 122 14 -15 -8 4 63 2 -49 29 126 -1 -107 23 -42 46
0000f0 f7 ee 81 d5 56 d9 a1 df e8 ed eb b7 ff a7 cc 2f
       -9 -18 -127 -43 86 -39 -95 -33 -24 -19 -21 -73 -1 -89 -52 47

model_1/head/Conv2D i1 [32, 1, 1, 96]
000000 14 43 1f b2 bc 0f fb 49 fd db 91 a4 9f 6b d0 45
       20 67 31 -78 -68 15 -5 73 -3 -37 -111 -92 -97 107 -48 69
000010 2d 62 1f 0a e3 9b dc 23 61 97 0b 71 3a b6 44 05
       45 98 31 10 -29 -101 -36 35 97 -105 11 113 58 -74 68 5
000020 b4 5b 1c c5 ed 0b a6 f2 9b ce 74 c2 49 f8 af 70
       -76 91 28 -59 -19 11 -90 -14 -101 -50 116 -62 73 -8 -81 112
000030 a5 54 b2 1c e9 57 01 34 ba b2 f7 25 fa 5c 2a 81
       -91 84 -78 28 -23 87 1 52 -70 -78 -9 37 -6 92 42 -127
000040 4d 95 a4 38 38 b6 fb 76 cb 31 d7 6f d8 d8 ea f8
       77 -107 -92 56 56 -74 -5 118 -53 49 -41 111 -40 -40 -22 -8
000050 97 2b 49 20 ce c0 c5 d7 16 29 20 3f 98 b4 d1 2e
       -105 43 73 32 -50 -64 -59 -41 22 41 32 63 -104 -76 -47 46
000060 49 0b 4e 29 20 b8 ff 7a 29 38 b9 43 96 95 21 ba
       73 11 78 41 32 -72 -1 122 41 56 -71 67 -106 -107 33 -70
000070 cd e4 10 e9 6b 5c af bf 2c f7 e6 c4 5b 32 e8 c4
       -51 -28 16 -23 107 92 -81 -65 44 -9 -26 -60 91 50 -24 -60
000080 ad af aa b7 29 bd d4 15 02 61 ff 26 2b 09 d9 2c
       -83 -81 -86 -73 41 -67 -44 21 2 97 -1 38 43 9 -39 44
000090 17 91 03 d6 f9 96 c4 9b 29 32 5c 10 47 b3 df d8
       23 -111 3 -42 -7 -106 -60 -101 41 50 92 16 71 -77 -33 -40
0000a0 7d f8 05 5f 50 5d 35 77 ff 26 3b 25 4a c4 7f fa
       125 -8 5 95 80 93 53 119 -1 38 59 37 74 -60 127 -6
0000b0 b4 62 be 4f 1e 16 8a 28 c9 c3 3e e9 d6 17 2f 0b
       -76 98 -66 79 30 22 -118 40 -55 -61 62 -23 -42 23 47 11
0000c0 fc b5 a2 81 cf 04 45 fb 13 c9 b7 c5 2f 4d b1 85
       -4 -75 -94 -127 -49 4 69 -5 19 -55 -73 -59 47 77 -79 -123
0000d0 97 1e cc 1b 9b c7 19 13 b6 42 cd c9 e3 d7 a5 1a
       -105 30 -52 27 -101 -57 25 19 -74 66 -51 -55 -29 -41 -91 26
0000e0 2e b4 2f fd a9 14 ac 3f 37 dd 6d 48 b8 e6 31 17
       46 -76 47 -3 -87 20 -84 63 55 -35 109 72 -72 -26 49 23
0000f0 ea bd fd 58 a1 ab fc ab cc 13 50 6d 5e 4e b8 62
       -22 -67 -3 88 -95 -85 -4 -85 -52 19 80 109 94 78 -72 98

model_1/logits/Conv2D i1 [2, 1, 1, 32]
000000 da e0 d8 d7 6c fb 56 14 25 b4 ac bc 66 d8 77 fa
       -38 -32 -40 -41 108 -5 86 20 37 -76 -84 -68 102 -40 119 -6
000010 b5 0b 58 0c 56 e6 7f d4 e2 77 0d a8 b1 aa 1b 17
       -75 11 88 12 86 -26 127 -44 -30 119 13 -88 -79 -86 27 23
000020 5d 7f aa b7 09 68 10 c5 46 9e a9 3c 99 06 1a 58
       93 127 -86 -73 9 104 16 -59 70 -98 -87 60 -103 6 26 88
000030 a8 63 67 4d bb 03 d4 33 6b f1 b2 a8 42 5c 72 93
       -88 99 103 77 -69 3 -44 51 107 -15 -78 -88 66 92 114 -109
